…
tch_size": 1024, "n_epochs": 3, "clip_range": 0.2, "gamma": 0.99, "gae_lambda": 0.95, "lr_actor": 0.0003, "lr_critic": 0.001, "num_env": 1, "no_graphics": true, "time_scale": 50, "total_timesteps": 0, "test_total_episodes": 1, "export_onnx": false, "resume_wandb": true, "reinitialize_from_best": true, "ranks_to_use": [8], "env": "<stable_baselines3.common.vec_env.subproc_vec_env.SubprocVecEnv object at 0x7fc3d97d5cd0>", "algo": "PPO", "seed": "None", "device": "cuda", "n_envs": 1, "policy": "ActorCriticPolicy(\n  (features_extractor): CustomCombinedExtractor(\n    (cnn1): Sequential(\n      (0): Conv2d(3, 32, kernel_size=(3, 3), stride=(2, 2))\n      (1): ReLU()\n      (2): Conv2d(32, 64, kernel_size=(2, 2), stride=(1, 1))\n      (3): MaxPool2d(kernel_size=2, stride=2, padding=0, dilation=1, ceil_mode=False)\n      (4): ReLU()\n      (5): Flatten(start_dim=1, end_dim=-1)\n    )\n    (cnn2): Sequential(\n      (0): Conv2d(1, 16, kernel_size=(3, 3), stride=(2, 2))\n      (1): ReLU()\n      (2): Conv2d(16, 32, kernel_size=(3, 3), stride=(2, 2))\n      (3): MaxPool2d(kernel_size=2, stride=2, padding=0, dilation=1, ceil_mode=False)\n      (4): ReLU()\n      (5): Flatten(start_dim=1, end_dim=-1)\n    )\n    (linear_layer): Sequential(\n      (0): Linear(in_features=6032, out_features=1024, bias=True)\n      (1): ReLU()\n    )\n  )\n  (mlp_extractor): MlpExtractor(\n    (shared_net): Sequential()\n    (policy_net): Sequential(\n      (0): Linear(in_features=1024, out_features=64, bias=True)\n      (1): Tanh()\n      (2): Linear(in_features=64, out_features=64, bias=True)\n      (3): Tanh()\n    )\n    (value_net): Sequential(\n      (0): Linear(in_features=1024, out_features=64, bias=True)\n      (1): Tanh()\n      (2): Linear(in_features=64, out_features=64, bias=True)\n      (3): Tanh()\n    )\n  )\n  (action_net): Linear(in_features=64, out_features=4, bias=True)\n  (value_net): Linear(in_features=64, out_features=1, bias=True)\n)", "n_steps": 2048, "run_dir": "/app/baseAgents/run62.octree/wandb/run-20211025_071003-run62.octree/files", "use_sde": "False", "verbose": 1, "vf_coef": 0.5, "ent_coef": 0, "eval_env": "None", "target_kl": "None", "start_time": 1635089572.7487135, "lr_schedule": "<function constant_fn.<locals>.func at 0x7fc4d6162950>", "action_noise": "None", "action_sp
…
